Model: "model"
_________________________________________________________________
Layer (type)                 Output Shape              Param #   
=================================================================
input_1 (InputLayer)         [(None, 28, 28, 1)]       0         
_________________________________________________________________
conv2d (Conv2D)              (None, 14, 14, 64)        640       
_________________________________________________________________
batch_normalization (BatchNo (None, 14, 14, 64)        256       
_________________________________________________________________
conv2d_1 (Conv2D)            (None, 7, 7, 128)         73856     
_________________________________________________________________
batch_normalization_1 (Batch (None, 7, 7, 128)         512       
_________________________________________________________________
conv2d_2 (Conv2D)            (None, 7, 7, 128)         147584    
_________________________________________________________________
batch_normalization_2 (Batch (None, 7, 7, 128)         512       
_________________________________________________________________
conv2d_3 (Conv2D)            (None, 7, 7, 128)         147584    
_________________________________________________________________
batch_normalization_3 (Batch (None, 7, 7, 128)         512       
_________________________________________________________________
conv2d_4 (Conv2D)            (None, 7, 7, 128)         147584    
_________________________________________________________________
batch_normalization_4 (Batch (None, 7, 7, 128)         512       
_________________________________________________________________
conv2d_5 (Conv2D)            (None, 7, 7, 128)         147584    
_________________________________________________________________
batch_normalization_5 (Batch (None, 7, 7, 128)         512       
_________________________________________________________________
conv2d_6 (Conv2D)            (None, 7, 7, 128)         147584    
_________________________________________________________________
batch_normalization_6 (Batch (None, 7, 7, 128)         512       
_________________________________________________________________
conv2d_7 (Conv2D)            (None, 7, 7, 128)         147584    
_________________________________________________________________
batch_normalization_7 (Batch (None, 7, 7, 128)         512       
_________________________________________________________________
conv2d_8 (Conv2D)            (None, 7, 7, 128)         147584    
_________________________________________________________________
batch_normalization_8 (Batch (None, 7, 7, 128)         512       
_________________________________________________________________
conv2d_9 (Conv2D)            (None, 7, 7, 128)         147584    
_________________________________________________________________
batch_normalization_9 (Batch (None, 7, 7, 128)         512       
_________________________________________________________________
flatten (Flatten)            (None, 6272)              0         
_________________________________________________________________
dense (Dense)                (None, 2)                 12546     
=================================================================
Total params: 1,272,578
Trainable params: 1,270,146
Non-trainable params: 2,432
_________________________________________________________________
None
Model: "model_1"
_________________________________________________________________
Layer (type)                 Output Shape              Param #   
=================================================================
input_2 (InputLayer)         [(None, 2)]               0         
_________________________________________________________________
dense_1 (Dense)              (None, 49)                147       
_________________________________________________________________
reshape (Reshape)            (None, 7, 7, 1)           0         
_________________________________________________________________
conv2d_transpose (Conv2DTran (None, 7, 7, 128)         1280      
_________________________________________________________________
batch_normalization_10 (Batc (None, 7, 7, 128)         512       
_________________________________________________________________
conv2d_transpose_1 (Conv2DTr (None, 7, 7, 128)         147584    
_________________________________________________________________
batch_normalization_11 (Batc (None, 7, 7, 128)         512       
_________________________________________________________________
conv2d_transpose_2 (Conv2DTr (None, 7, 7, 128)         147584    
_________________________________________________________________
batch_normalization_12 (Batc (None, 7, 7, 128)         512       
_________________________________________________________________
conv2d_transpose_3 (Conv2DTr (None, 7, 7, 128)         147584    
_________________________________________________________________
batch_normalization_13 (Batc (None, 7, 7, 128)         512       
_________________________________________________________________
conv2d_transpose_4 (Conv2DTr (None, 7, 7, 128)         147584    
_________________________________________________________________
batch_normalization_14 (Batc (None, 7, 7, 128)         512       
_________________________________________________________________
conv2d_transpose_5 (Conv2DTr (None, 7, 7, 128)         147584    
_________________________________________________________________
batch_normalization_15 (Batc (None, 7, 7, 128)         512       
_________________________________________________________________
conv2d_transpose_6 (Conv2DTr (None, 7, 7, 128)         147584    
_________________________________________________________________
batch_normalization_16 (Batc (None, 7, 7, 128)         512       
_________________________________________________________________
conv2d_transpose_7 (Conv2DTr (None, 7, 7, 128)         147584    
_________________________________________________________________
batch_normalization_17 (Batc (None, 7, 7, 128)         512       
_________________________________________________________________
conv2d_transpose_8 (Conv2DTr (None, 14, 14, 128)       147584    
_________________________________________________________________
batch_normalization_18 (Batc (None, 14, 14, 128)       512       
_________________________________________________________________
conv2d_transpose_9 (Conv2DTr (None, 28, 28, 64)        73792     
_________________________________________________________________
batch_normalization_19 (Batc (None, 28, 28, 64)        256       
_________________________________________________________________
conv2d_transpose_10 (Conv2DT (None, 28, 28, 1)         577       
=================================================================
Total params: 1,261,332
Trainable params: 1,258,900
Non-trainable params: 2,432
_________________________________________________________________
None
Model: "model_2"
_________________________________________________________________
Layer (type)                 Output Shape              Param #   
=================================================================
input_3 (InputLayer)         [(None, 28, 28, 1)]       0         
_________________________________________________________________
model (Functional)           (None, 2)                 1272578   
_________________________________________________________________
model_1 (Functional)         (None, 28, 28, 1)         1261332   
=================================================================
Total params: 2,533,910
Trainable params: 2,529,046
Non-trainable params: 4,864
_________________________________________________________________
None
Finished training
(25000, 28, 28, 1)
Predicting test-cases for data trained with 8. For the mono-case
Coverage: 100.00%
Predictability: 96.33%
Accuracy: 88.31%
Coverage generator: 90.00%
…
